root_dir /nfs/ada/oates/users/omkark1/Thesis_Work
/nfs/ada/oates/users/omkark1/Thesis_Work/data/images/
/nfs/ada/oates/users/omkark1/Thesis_Work/data/annotations/trimaps/
checkpoints/segmentation/04-09/17-23-00/
----------------------------------------------------------------
        Layer (type)               Output Shape         Param #
================================================================
            Conv2d-1         [-1, 64, 160, 160]           1,792
       BatchNorm2d-2         [-1, 64, 160, 160]             128
              ReLU-3         [-1, 64, 160, 160]               0
            Conv2d-4         [-1, 64, 160, 160]          36,928
       BatchNorm2d-5         [-1, 64, 160, 160]             128
              ReLU-6         [-1, 64, 160, 160]               0
        DoubleConv-7         [-1, 64, 160, 160]               0
         MaxPool2d-8           [-1, 64, 80, 80]               0
            Conv2d-9          [-1, 128, 80, 80]          73,856
      BatchNorm2d-10          [-1, 128, 80, 80]             256
             ReLU-11          [-1, 128, 80, 80]               0
           Conv2d-12          [-1, 128, 80, 80]         147,584
      BatchNorm2d-13          [-1, 128, 80, 80]             256
             ReLU-14          [-1, 128, 80, 80]               0
       DoubleConv-15          [-1, 128, 80, 80]               0
             Down-16          [-1, 128, 80, 80]               0
        MaxPool2d-17          [-1, 128, 40, 40]               0
           Conv2d-18          [-1, 256, 40, 40]         295,168
      BatchNorm2d-19          [-1, 256, 40, 40]             512
             ReLU-20          [-1, 256, 40, 40]               0
           Conv2d-21          [-1, 256, 40, 40]         590,080
      BatchNorm2d-22          [-1, 256, 40, 40]             512
             ReLU-23          [-1, 256, 40, 40]               0
       DoubleConv-24          [-1, 256, 40, 40]               0
             Down-25          [-1, 256, 40, 40]               0
        MaxPool2d-26          [-1, 256, 20, 20]               0
           Conv2d-27          [-1, 256, 20, 20]         590,080
      BatchNorm2d-28          [-1, 256, 20, 20]             512
             ReLU-29          [-1, 256, 20, 20]               0
           Conv2d-30          [-1, 256, 20, 20]         590,080
      BatchNorm2d-31          [-1, 256, 20, 20]             512
             ReLU-32          [-1, 256, 20, 20]               0
       DoubleConv-33          [-1, 256, 20, 20]               0
             Down-34          [-1, 256, 20, 20]               0
         Upsample-35          [-1, 256, 40, 40]               0
           Conv2d-36          [-1, 256, 40, 40]       1,179,904
      BatchNorm2d-37          [-1, 256, 40, 40]             512
             ReLU-38          [-1, 256, 40, 40]               0
           Conv2d-39          [-1, 128, 40, 40]         295,040
      BatchNorm2d-40          [-1, 128, 40, 40]             256
             ReLU-41          [-1, 128, 40, 40]               0
       DoubleConv-42          [-1, 128, 40, 40]               0
               Up-43          [-1, 128, 40, 40]               0
         Upsample-44          [-1, 128, 80, 80]               0
           Conv2d-45          [-1, 128, 80, 80]         295,040
      BatchNorm2d-46          [-1, 128, 80, 80]             256
             ReLU-47          [-1, 128, 80, 80]               0
           Conv2d-48           [-1, 64, 80, 80]          73,792
      BatchNorm2d-49           [-1, 64, 80, 80]             128
             ReLU-50           [-1, 64, 80, 80]               0
       DoubleConv-51           [-1, 64, 80, 80]               0
               Up-52           [-1, 64, 80, 80]               0
         Upsample-53         [-1, 64, 160, 160]               0
           Conv2d-54         [-1, 64, 160, 160]          73,792
      BatchNorm2d-55         [-1, 64, 160, 160]             128
             ReLU-56         [-1, 64, 160, 160]               0
           Conv2d-57         [-1, 64, 160, 160]          36,928
      BatchNorm2d-58         [-1, 64, 160, 160]             128
             ReLU-59         [-1, 64, 160, 160]               0
       DoubleConv-60         [-1, 64, 160, 160]               0
               Up-61         [-1, 64, 160, 160]               0
           Conv2d-62          [-1, 3, 160, 160]             195
          OutConv-63          [-1, 3, 160, 160]               0
================================================================
Total params: 4,284,483
Trainable params: 4,284,483
Non-trainable params: 0
----------------------------------------------------------------
Input size (MB): 0.29
Forward/backward pass size (MB): 348.83
Params size (MB): 16.34
Estimated Total Size (MB): 365.47
----------------------------------------------------------------
